…
        "第一次运行上面的cell的时候，会下载一个resnet34的预训练模型，这个模型会作为初始权重。它源自于imagenet——它已经看过数以万计的图片了，所以我们就不需要从头造轮子——我们把这个叫做**Transfer Learning**"
      ]
    },
    {
      "cell_type": "code",
      "metadata": {
        "id": "RiNSTubnpwri",
        "colab_type": "code",
        "outputId": "049875da-6ae8-4138-b9f8-84d4f1d9bff1",
        "colab": {
          "base_uri": "https://localhost:8080/",
          "height": 1000
        }
      },
      "source": [
        "learn.model"
      ],
      "execution_count": 0,
      "outputs": [
        {
          "output_type": "execute_result",
          "data": {
            "text/plain": [
              "Sequential(\n",
              "  (0): Sequential(\n",
              "    (0): Conv2d(3, 64, kernel_size=(7, 7), stride=(2, 2), padding=(3, 3), bias=False)\n",
              "    (1): BatchNorm2d(64, eps=1e-05, momentum=0.1, affine=True, track_running_stats=True)\n",
              "    (2): ReLU(inplace=True)\n",
              "    (3): MaxPool2d(kernel_size=3, stride=2, padding=1, dilation=1, ceil_mode=False)\n",
              "    (4): Sequential(\n",
              "      (0): BasicBlock(\n",
              "        (conv1): Conv2d(64, 64, kernel_size=(3, 3), stride=(1, 1), padding=(1, 1), bias=False)\n",
              "        (bn1): BatchNorm2d(64, eps=1e-05, momentum=0.1, affine=True, track_running_stats=True)\n",
              "        (relu): ReLU(inplace=True)\n",
              "        (conv2): Conv2d(64, 64, kernel_size=(3, 3), stride=(1, 1), padding=(1, 1), bias=False)\n",
              "        (bn2): BatchNorm2d(64, eps=1e-05, momentum=0.1, affine=True, track_running_stats=True)\n",
              "      )\n",
              "      (1): BasicBlock(\n",
              "        (conv1): Conv2d(64, 64, kernel_size=(3, 3), stride=(1, 1), padding=(1, 1), bias=False)\n",
              "        (bn1): BatchNorm2d(64, eps=1e-05, momentum=0.1, affine=True, track_running_stats=True)\n",
              "        (relu): ReLU(inplace=True)\n",
              "        (conv2): Conv2d(64, 64, kernel_size=(3, 3), stride=(1, 1), padding=(1, 1), bias=False)\n",
              "        (bn2): BatchNorm2d(64, eps=1e-05, momentum=0.1, affine=True, track_running_stats=True)\n",
              "      )\n",
              "      (2): BasicBlock(\n",
              "        (conv1): Conv2d(64, 64, kernel_size=(3, 3), stride=(1, 1), padding=(1, 1), bias=False)\n",
              "        (bn1): BatchNorm2d(64, eps=1e-05, momentum=0.1, affine=True, track_running_stats=True)\n",
              "        (relu): ReLU(inplace=True)\n",
              "        (conv2): Conv2d(64, 64, kernel_size=(3, 3), stride=(1, 1), padding=(1, 1), bias=False)\n",
              "        (bn2): BatchNorm2d(64, eps=1e-05, momentum=0.1, affine=True, track_running_stats=True)\n",
              "      )\n",
              "    )\n",
              "    (5): Sequential(\n",
              "      (0): BasicBlock(\n",
              "        (conv1): Conv2d(64, 128, kernel_size=(3, 3), stride=(2, 2), padding=(1, 1), bias=False)\n",
              "        (bn1): BatchNorm2d(128, eps=1e-05, momentum=0.1, affine=True, track_running_stats=True)\n",
              "        (relu): ReLU(inplace=True)\n",
              "        (conv2): Conv2d(128, 128, kernel_size=(3, 3), stride=(1, 1), padding=(1, 1), bias=False)\n",
              "        (bn2): BatchNorm2d(128, eps=1e-05, momentum=0.1, affine=True, track_running_stats=True)\n",
              "        (downsample): Sequential(\n",
              "          (0): Conv2d(64, 128, kernel_size=(1, 1), stride=(2, 2), bias=False)\n",
              "          (1): BatchNorm2d(128, eps=1e-05, momentum=0.1, affine=True, track_running_stats=True)\n",
              "        )\n",
              "      )\n",
              "      (1): BasicBlock(\n",
              "        (conv1): Conv2d(128, 128, kernel_size=(3, 3), stride=(1, 1), padding=(1, 1), bias=False)\n",
              "        (bn1): BatchNorm2d(128, eps=1e-05, momentum=0.1, affine=True, track_running_stats=True)\n",
              "        (relu): ReLU(inplace=True)\n",
              "        (conv2): Conv2d(128, 128, kernel_size=(3, 3), stride=(1, 1), padding=(1, 1), bias=False)\n",
              "        (bn2): BatchNorm2d(128, eps=1e-05, momentum=0.1, affine=True, track_running_stats=True)\n",
              "      )\n",
              "      (2): BasicBlock(\n",
              "        (conv1): Conv2d(128, 128, kernel_size=(3, 3), stride=(1, 1), padding=(1, 1), bias=False)\n",
              "        (bn1): BatchNorm2d(128, eps=1e-05, momentum=0.1, affine=True, track_running_stats=True)\n",
              "        (relu): ReLU(inplace=True)\n",
              "        (conv2): Conv2d(128, 128, kernel_size=(3, 3), stride=(1, 1), padding=(1, 1), bias=False)\n",
              "        (bn2): BatchNorm2d(128, eps=1e-05, momentum=0.1, affine=True, track_running_stats=True)\n",
              "      )\n",
              "      (3): BasicBlock(\n",
              "        (conv1): Conv2d(128, 128, kernel_size=(3, 3), stride=(1, 1), padding=(1, 1), bias=False)\n",
              "        (bn1): BatchNorm2d(128, eps=1e-05, momentum=0.1, affine=True, track_running_stats=True)\n",
              "        (relu): ReLU(inplace=True)\n",
              "        (conv2): Conv2d(128, 128, kernel_size=(3, 3), stride=(1, 1), padding=(1, 1), bias=False)\n",
              "        (bn2): BatchNorm2d(128, eps=1e-05, momentum=0.1, affine=True, track_running_stats=True)\n",
              "      )\n",
              "    )\n",
              "    (6): Sequential(\n",
              "      (0): BasicBlock(\n",
              "        (conv1): Conv2d(128, 256, kernel_size=(3, 3), stride=(2, 2), padding=(1, 1), bias=False)\n",
              "        (bn1): BatchNorm2d(256, eps=1e-05, momentum=0.1, affine=True, track_running_stats=True)\n",
              "        (relu): ReLU(inplace=True)\n",
              "        (conv2): Conv2d(256, 256, kernel_size=(3, 3), stride=(1, 1), padding=(1, 1), bias=False)\n",
              "        (bn2): BatchNorm2d(256, eps=1e-05, momentum=0.1, affine=True, track_running_stats=True)\n",
              "        (downsample): Sequential(\n",
              "          (0): Conv2d(128, 256, kernel_size=(1, 1), stride=(2, 2), bias=False)\n",
              "          (1): BatchNorm2d(256, eps=1e-05, momentum=0.1, affine=True, track_running_stats=True)\n",
              "        )\n",
              "      )\n",
              "      (1): BasicBlock(\n",
              "        (conv1): Conv2d(256, 256, kernel_size=(3, 3), stride=(1, 1), padding=(1, 1), bias=False)\n",
              "        (bn1): BatchNorm2d(256, eps=1e-05, momentum=0.1, affine=True, track_running_stats=True)\n",
              "        (relu): ReLU(inplace=True)\n",
              "        (conv2): Conv2d(256, 256, kernel_size=(3, 3), stride=(1, 1), padding=(1, 1), bias=False)\n",
              "        (bn2): BatchNorm2d(256, eps=1e-05, momentum=0.1, affine=True, track_running_stats=True)\n",
              "      )\n",
              "      (2): BasicBlock(\n",
              "        (conv1): Conv2d(256, 256, kernel_size=(3, 3), stride=(1, 1), padding=(1, 1), bias=False)\n",
              "        (bn1): BatchNorm2d(256, eps=1e-05, momentum=0.1, affine=True, track_running_stats=True)\n",
              "        (relu): ReLU(inplace=True)\n",
              "        (conv2): Conv2d(256, 256, kernel_size=(3, 3), stride=(1, 1), padding=(1, 1), bias=False)\n",
              "        (bn2): BatchNorm2d(256, eps=1e-05, momentum=0.1, affine=True, track_running_stats=True)\n",
              "      )\n",
              "      (3): BasicBlock(\n",
              "        (conv1): Conv2d(256, 256, kernel_size=(3, 3), stride=(1, 1), padding=(1, 1), bias=False)\n",
              "        (bn1): BatchNorm2d(256, eps=1e-05, momentum=0.1, affine=True, track_running_stats=True)\n",
              "        (relu): ReLU(inplace=True)\n",
              "        (conv2): Conv2d(256, 256, kernel_size=(3, 3), stride=(1, 1), padding=(1, 1), bias=False)\n",
              "        (bn2): BatchNorm2d(256, eps=1e-05, momentum=0.1, affine=True, track_running_stats=True)\n",
              "      )\n",
              "      (4): BasicBlock(\n",
              "        (conv1): Conv2d(256, 256, kernel_size=(3, 3), stride=(1, 1), padding=(1, 1), bias=False)\n",
              "        (bn1): BatchNorm2d(256, eps=1e-05, momentum=0.1, affine=True, track_running_stats=True)\n",
              "        (relu): ReLU(inplace=True)\n",
              "        (conv2): Conv2d(256, 256, kernel_size=(3, 3), stride=(1, 1), padding=(1, 1), bias=False)\n",
              "        (bn2): BatchNorm2d(256, eps=1e-05, momentum=0.1, affine=True, track_running_stats=True)\n",
              "      )\n",
              "      (5): BasicBlock(\n",
              "        (conv1): Conv2d(256, 256, kernel_size=(3, 3), stride=(1, 1), padding=(1, 1), bias=False)\n",
              "        (bn1): BatchNorm2d(256, eps=1e-05, momentum=0.1, affine=True, track_running_stats=True)\n",
              "        (relu): ReLU(inplace=True)\n",
              "        (conv2): Conv2d(256, 256, kernel_size=(3, 3), stride=(1, 1), padding=(1, 1), bias=False)\n",
              "        (bn2): BatchNorm2d(256, eps=1e-05, momentum=0.1, affine=True, track_running_stats=True)\n",
              "      )\n",
              "    )\n",
              "    (7): Sequential(\n",
              "      (0): BasicBlock(\n",
              "        (conv1): Conv2d(256, 512, kernel_size=(3, 3), stride=(2, 2), padding=(1, 1), bias=False)\n",
              "        (bn1): BatchNorm2d(512, eps=1e-05, momentum=0.1, affine=True, track_running_stats=True)\n",
              "        (relu): ReLU(inplace=True)\n",
              "        (conv2): Conv2d(512, 512, kernel_size=(3, 3), stride=(1, 1), padding=(1, 1), bias=False)\n",
              "        (bn2): BatchNorm2d(512, eps=1e-05, momentum=0.1, affine=True, track_running_stats=True)\n",
              "        (downsample): Sequential(\n",
              "          (0): Conv2d(256, 512, kernel_size=(1, 1), stride=(2, 2), bias=False)\n",
              "          (1): BatchNorm2d(512, eps=1e-05, momentum=0.1, affine=True, track_running_stats=True)\n",
              "        )\n",
              "      )\n",
              "      (1): BasicBlock(\n",
              "        (conv1): Conv2d(512, 512, kernel_size=(3, 3), stride=(1, 1), padding=(1, 1), bias=False)\n",
              "        (bn1): BatchNorm2d(512, eps=1e-05, momentum=0.1, affine=True, track_running_stats=True)\n",
              "        (relu): ReLU(inplace=True)\n",
              "        (conv2): Conv2d(512, 512, kernel_size=(3, 3), stride=(1, 1), padding=(1, 1), bias=False)\n",
              "        (bn2): BatchNorm2d(512, eps=1e-05, momentum=0.1, affine=True, track_running_stats=True)\n",
              "      )\n",
              "      (2): BasicBlock(\n",
              "        (conv1): Conv2d(512, 512, kernel_size=(3, 3), stride=(1, 1), padding=(1, 1), bias=False)\n",
              "        (bn1): BatchNorm2d(512, eps=1e-05, momentum=0.1, affine=True, track_running_stats=True)\n",
              "        (relu): ReLU(inplace=True)\n",
              "        (conv2): Conv2d(512, 512, kernel_size=(3, 3), stride=(1, 1), padding=(1, 1), bias=False)\n",
              "        (bn2): BatchNorm2d(512, eps=1e-05, momentum=0.1, affine=True, track_running_stats=True)\n",
              "      )\n",
              "    )\n",
              "  )\n",
              "  (1): Sequential(\n",
              "    (0): AdaptiveConcatPool2d(\n",
              "      (ap): AdaptiveAvgPool2d(output_size=1)\n",
              "      (mp): AdaptiveMaxPool2d(output_size=1)\n",
              "    )\n",
              "    (1): Flatten()\n",
              "    (2): BatchNorm1d(1024, eps=1e-05, momentum=0.1, affine=True, track_running_stats=True)\n",
              "    (3): Dropout(p=0.25, inplace=False)\n",
              "    (4): Linear(in_features=1024, out_features=512, bias=True)\n",
              "    (5): ReLU(inplace=True)\n",
              "    (6): BatchNorm1d(512, eps=1e-05, momentum=0.1, affine=True, track_running_stats=True)\n",
              "    (7): Dropout(p=0.5, inplace=False)\n",
              "    (8): Linear(in_features=512, out_features=37, bias=True)\n",
              "  )\n",
              ")"
            ]
          },
          "metadata": {
            "tags": []
          },
          "execution_count": 14
        }
      ]
    },
    {
      "cell_type": "code",
      "metadata": {
        "id": "yE8hCoUOpwrk",
        "colab_type": "code",
        "outputId": "95d933d3-e6eb-4fcc-d471-59d30a1bc564",
…
